model.pt (torch, 299387 bytes, 8 tensors)

weight f4 [16, 1, 5, 5]
0	0xbe1c4b57	-0.15263115
1	0xbe23b84a	-0.1598827
2	0xbe02f721	-0.12789585
3	0x3e2baa0f	0.16764091
4	0x3de5cbce	0.11220513
5	0xbe056738	-0.13027656
6	0xbe33842c	-0.17530888
7	0x3e0f0659	0.13967265
8	0xbcc0b0ff	-0.023521898
9	0x3d204a81	0.039133552
10	0xbe9f25b2	-0.31083447
11	0xbe944659	-0.2895992
12	0xbc275d85	-0.010215168
13	0x3e2f2648	0.17104447
14	0x3e5cc564	0.21559674
15	0xbeaa11e3	-0.3321677
16	0xbe011953	-0.12607317
17	0x3decfa24	0.11571148
18	0x3ea912dc	0.330222
19	0x3da4686e	0.08027731
20	0xbe723a94	-0.23655158
21	0xbe461413	-0.19343595
22	0xbe1e7dc3	-0.15477662
23	0x3e9eec0c	0.31039464
24	0x3e338c91	0.1753409
25	0xbeb491a0	-0.35267353
26	0xbe6e8823	-0.2329412
27	0x3c0e4cb8	0.008685283
28	0x3e5e9d78	0.21739757
29	0x3e5f84f8	0.21828067
30	0xbe24b51c	-0.16084713
31	0x3d87851f	0.06617188
32	0x3ecf1a95	0.40449968
33	0x3e9030d9	0.28162268
34	0x3e84d5ed	0.25944462
35	0xbd466e2b	-0.048444908
36	0x3e47b6c9	0.19503321
37	0x3f0c6837	0.5484652
38	0x3eb61e4d	0.35569993
39	0xbe0ba507	-0.13637172
40	0x3e3ce790	0.18447709
41	0x3ecb19ae	0.3966803
42	0x3eb3ff8b	0.351559
43	0xbe4bd1e9	-0.19904293
44	0xbef827bd	-0.48467818
45	0x3e06c9b0	0.13162875
46	0xbd7dedf3	-0.061994504
47	0x3d4a8f0e	0.049452834
48	0xbef8f987	-0.48627874
49	0xbf02e6d7	-0.51133484
50	0x3d92614b	0.071474634
51	0xbd76d720	-0.060263753
52	0x3e974417	0.29544136
53	0x3e1e4cde	0.1545901
54	0xbed2a64d	-0.41142502
55	0xbe245f20	-0.16051912
56	0x3d02b1d8	0.031907886
57	0x3eb63f19	0.35595015
58	0x3eccddf8	0.400131
59	0x3e0810a6	0.13287601
60	0xbe8a885e	-0.27057165
61	0xbda42632	-0.08015098
62	0x3e9d4277	0.3071477
63	0x3ea93370	0.33047056
64	0x3cac8483	0.02105928
65	0xbe000062	-0.12500146
66	0xbed77134	-0.42078555
67	0xbe107704	-0.14107901
68	0x3e55c420	0.20875597
69	0x3daf07e4	0.08546427
70	0x3dae6bf5	0.08516685
71	0xbed6accb	-0.41928706
72	0xbdc6cbf3	-0.09706869
73	0x3e80abf8	0.25131202
74	0xbcca4867	-0.024692727
75	0x3bbf4432	0.005836987
76	0xbe40721e	-0.18793532
77	0x3c73e303	0.014885667
78	0xbdb55b9e	-0.08855365
79	0x3c6830d0	0.014171794
80	0x3e185b69	0.1487862
81	0xbd867fb5	-0.06567327
82	0x3e10fabd	0.14158149
83	0xbdf1688f	-0.11787521
84	0x3de03651	0.1094786
85	0xbe25c795	-0.16189416
86	0x3e0da4c2	0.13832381
87	0x3cff39ec	0.031155549
88	0xbda28dd1	-0.079372056
89	0xbb0f347b	-0.002185135
90	0x3e27c2bc	0.16382879
91	0xbe073a20	-0.13205767
92	0x3d570ddf	0.052503463
93	0x3d5a7144	0.053330675
94	0xbe3ec93a	-0.1863145
95	0xbcb2861f	-0.02179247
96	0x3db8311c	0.08993742
97	0x3c18df77	0.009330622
98	0xbe33e9c1	-0.17569639
99	0x3d8d80b2	0.06909312
100	0x3e773944	0.24142939
101	0x3ec363cd	0.3816208
102	0x3c90fadc	0.017697744
103	0xbe851b94	-0.25997603
104	0xbe1c9172	-0.15289858
105	0x3e41dbf4	0.18931562
106	0x3ecf8f1b	0.40538868
107	0x3dce9ca3	0.1008847
108	0xbdc4ea2d	-0.09614978
109	0xbebb954a	-0.36637336
110	0x3e07680e	0.13223287
111	0x3e958450	0.2920251
112	0x3e544244	0.20728403
113	0xbe152eec	-0.1456868
114	0xbe84645d	-0.2585782
115	0x3defce8a	0.11709316
116	0x3ec5a5b6	0.3860299
117	0xbdd5f9b6	-0.10448019
118	0xbeaeec5c	-0.34164703
119	0xbdb0d040	-0.086334705
120	0x3ea1f016	0.31628484
121	0x3eba6f77	0.36413166
122	0xbe2ce9f3	-0.1688612
123	0xbeb230c2	-0.34802824
124	0x3d63ab51	0.055583302
125	0x3e259dae	0.16173431
126	0xbe11dc75	-0.14244254
127	0xbe37562a	-0.17903963
128	0xbedbf455	-0.42959848
129	0xbe989de8	-0.29807973
130	0xbe76a55b	-0.24086516
131	0xbe60169e	-0.21883628
132	0xbf08a4e9	-0.5337663
133	0xbece8caa	-0.40341693
134	0xbe341f15	-0.17589982
135	0xbe2d7eb8	-0.1694287
136	0xbeb3dbe0	-0.3512869
137	0xbf03a304	-0.5142062
138	0xbe8b90d2	-0.27258927
139	0xbd0eb081	-0.034836296
140	0xbecf845a	-0.40530664
141	0xbeed3b80	-0.46334457
142	0xbe6ecc10	-0.23320031
143	0xbdaf90ca	-0.08572538
144	0x3ea150ec	0.3150705
145	0xbcbc5cb9	-0.022993432
146	0xbe5e1786	-0.21688661
147	0x3e3e0b2b	0.18558948
148	0x3d023478	0.03178832
149	0x3f11fa66	0.570227
150	0xbe292be4	-0.16520649
151	0xbe02dc03	-0.1277924
152	0x3ce0e45a	0.027452637
153	0x3cec4b21	0.028844418
154	0xbe473237	-0.19452749
155	0x3d81be6a	0.06335147
156	0xbe0db8a9	-0.13839974
157	0xbe4e4643	-0.2014399
158	0xbe261128	-0.16217482
159	0x3e26cf60	0.16290045
160	0xbe2108c8	-0.15726006
161	0xbe428049	-0.1899425
162	0xbe5111c7	-0.20416938
163	0xbe3a0273	-0.18164997
164	0x3c4d36f4	0.012525309
165	0xbd5f2251	-0.054476086
166	0xbd948fc8	-0.072539866
167	0xbde12044	-0.10992482
168	0x3a0bc686	0.00053320115
169	0x3e82ec98	0.25571132
170	0xbd6251c0	-0.055253744
171	0xbd8516bc	-0.06498477
172	0xbe14ede1	-0.14543869
173	0x3eb0739e	0.3446321
174	0x3ed2bcfd	0.41159812
175	0xbe1074ce	-0.14107057
176	0x3e1d9f8e	0.15392897
177	0x3e2e4cd5	0.17021497
178	0x3d4e528c	0.05037169
179	0xbeb89e60	-0.3605833
180	0x3d9db85e	0.07701181
181	0x3d17e21b	0.037080865
182	0x3e098670	0.1343019
183	0x3e74a2f4	0.23890287
184	0x3d3d2897	0.046181288
185	0xbdfd6cbe	-0.123742566
186	0x3cff3c2f	0.031156627
187	0x3e838213	0.25685176
188	0x3ea965a7	0.33085367
189	0x3d91f881	0.071274765
190	0xbdb9b0c5	-0.09066919
191	0xbe282501	-0.16420366
192	0xbd888361	-0.066656835
193	0x3e390600	0.18068695
194	0xbe1355e4	-0.14388233
195	0xbe209475	-0.15681632
196	0xbe95d830	-0.292665
197	0xbe90311b	-0.28162464
198	0x3e26dbca	0.1629478
199	0x3d83f907	0.064439826
200	0x3e886e38	0.2664659
201	0x3eac1404	0.3360902
202	0xbdae5bd0	-0.085136056
203	0x3e85a332	0.2610107
204	0x3d4b7dad	0.0496804
205	0x3e592ec5	0.21209247
206	0x3c75795e	0.0149825495
207	0x3d968072	0.07348718
208	0x3d472d99	0.04862747
209	0x3e453c90	0.19261384
210	0x3d3df3c0	0.046375036
211	0x3e77fb29	0.24216904
212	0xbd686ab7	-0.056742396
213	0xbe10283a	-0.14077845
214	0x3de0e79d	0.10981677
215	0xbbbc1bd7	-0.0057406235
216	0xbd8dadd4	-0.06917921
217	0xbdef1bbc	-0.11675212
218	0x3cbcc8a3	0.02304489
219	0x3e07edb3	0.13274269
220	0xbe0ca3b2	-0.1373432
221	0xbd9d26d5	-0.07673422
222	0xbeaae329	-0.33376434
223	0xbe9f7b12	-0.31148583
224	0xbe275408	-0.16340649
225	0xbeeee252	-0.46657044
226	0xbe04c076	-0.12964043
227	0xbc9af392	-0.018914972
228	0xbe50c290	-0.2038672
229	0xbe91952f	-0.2843413
230	0x3e0802b1	0.13282277
231	0x3f50eb57	0.816091
232	0x3f91afb6	1.1381748
233	0x3ef94df4	0.48692286
234	0x3d9f7acc	0.077870935
235	0x3e85d7bb	0.26141152
236	0x3fbc84fa	1.4728081
237	0x3fb5ad62	1.4193537
238	0x3f870251	1.0547582
239	0x3dcaa389	0.09894473
240	0x3e8150cd	0.2525696
241	0x3f86ea66	1.0540283
242	0x3f837126	1.0268905
243	0x3f160d2e	0.5861386
244	0xbea59537	-0.32340404
245	0xbe82bc8a	-0.2553447
246	0x3de30c4b	0.11086329
247	0x3eb23fd2	0.34814316
248	0xbca45e19	-0.0200644
249	0xbf2503f9	-0.64459187
250	0xbe892271	-0.2678409
251	0x3d7f8dc2	0.06239105
252	0x3dcf1888	0.10112101
253	0xbd5b8bd5	-0.05360015
254	0xbf09fdbb	-0.53902787
255	0x3def62f1	0.116887935

bias f4 [16]
0	0x3d8bc33f	0.068243496
1	0xbc57daeb	-0.013174753
2	0xbb4e21ef	-0.0031453331
3	0xbe384162	-0.17993692
4	0xbbd84dbe	-0.0066010645
5	0x3f73e1fa	0.9526669
6	0x3dcfea17	0.10152071
7	0xb9cc8c8f	-0.00039014636
8	0x3de0fb87	0.10985475
9	0x3db33b5b	0.087515555
10	0x3d2c64e1	0.042088393
11	0xbb44cd51	-0.0030029605
12	0xbac6e444	-0.001517423
13	0x3e6e67b1	0.23281743
14	0x3b44b6ba	0.003001614
15	0x3ea9dd27	0.33176538

weight f4 [16, 16, 5, 5]
0	0x3d268763	0.04065646
1	0x3cd188c2	0.025577907
2	0xbd2326e8	-0.039832026
3	0x3d45ccf4	0.04829116
4	0x3d85e0ac	0.065369934
5	0xbc84e245	-0.016221175
6	0xbd8f0a60	-0.06984401
7	0xbcb65485	-0.022257099
8	0x3dd6be43	0.10485508
9	0x3d8cc0bc	0.06872699
10	0xbd5e8eb1	-0.0543353
11	0xbb8157d8	-0.0039472394
12	0x3d57d8b4	0.0526969
13	0x3da84f80	0.082182884
14	0xbcaf78a8	-0.021419838
15	0xbccd1bca	-0.025037665
16	0xbb345072	-0.002751377
17	0x3b9592f2	0.0045646364
18	0x3cfa0cf6	0.030523758
19	0xbc9fedc6	-0.019522559
20	0xbc0e57fc	-0.008687969
21	0x3c13c08d	0.009018076
22	0x3cf25039	0.029579269
23	0xbd3574c2	-0.044300802
24	0xbd7dd128	-0.061967045
25	0x3d70d84f	0.058800038
26	0x3d00a06b	0.031402986
27	0x3d0df98a	0.034661807
28	0xbdc1f38f	-0.09470283
29	0x3dc12561	0.094309576
30	0xbd4dad17	-0.0502139
31	0x3c53bbb7	0.012923173
32	0xbde2b87c	-0.11070344
33	0xbce5499e	-0.027989205
34	0x3df6cc6d	0.1205071
35	0xbcbb44df	-0.022859989
36	0x3c1cce85	0.0095707225
37	0xbdce7d18	-0.100824535
38	0x3d8df1da	0.06930895
39	0x3e291884	0.16513258
40	0x3cc5a005	0.024124155
41	0xbd744907	-0.059639957
42	0x3c848179	0.016175019
43	0x3de013e7	0.10941296
44	0x3cfd1d4b	0.030897757
45	0x3d18d2b9	0.037310336
46	0x3d0eb88e	0.034843974
47	0x3d7f89fa	0.062387444
48	0x3da2ca3d	0.0794873
49	0x3d25d81f	0.040489312
50	0xbb520e5e	-0.003205202
51	0xbc9c40e4	-0.019073911
52	0xbd8f9ee5	-0.070127286
53	0xbcb3dc9e	-0.021955784
54	0xbadcd20f	-0.001684727
55	0x3caff441	0.021478774
56	0xbc539c13	-0.012915629
57	0xbc80c2cc	-0.015717886
58	0xbd35162a	-0.04421059
59	0x3c8a86c3	0.016909963
60	0x3c2cfcf7	0.010558358
61	0xbc0525cc	-0.008126687
62	0xbb6b3632	-0.0035890457
63	0xbce4f265	-0.027947614
64	0xbd7e7ec0	-0.062132597
65	0xbc666ac0	-0.014063537
66	0xbdb71dd9	-0.0894124
67	0xbd6abb07	-0.05730727
68	0x3cd7b26a	0.026330192
69	0xbd7687d6	-0.060188137
70	0x3c8280c0	0.015930533
71	0xbd55a897	-0.052162733
72	0xbd4c7635	-0.04991742
73	0x3c43382c	0.011915248
74	0xbd660cf9	-0.056164715
75	0x3d10ca95	0.035349447
76	0x3d277fde	0.040893428
77	0xbcf22693	-0.02955941
78	0x3d11a166	0.035554312
79	0xbb9835a3	-0.004645066
80	0x3c40df3c	0.011771973
81	0xbc55b921	-0.013044626
82	0x3cdd10dc	0.026985578
83	0xbd408330	-0.04700011
84	0xbcd784ff	-0.026308535
85	0x3d4090a2	0.047012933
86	0xbb0f9882	-0.002191097
87	0xbcbdc1bb	-0.023163667
88	0x3d0c18d0	0.03420335
89	0x3b710973	0.0036779314
90	0x3d1cc015	0.03826912
91	0xbd21e2b3	-0.039522838
92	0x3d4d9480	0.05019045
93	0x3cff260f	0.031146077
94	0xbcca3caa	-0.02468713
95	0xbd1f8b07	-0.038950946
96	0xbcef7822	-0.029232088
97	0xbd2b4bd1	-0.04182035
98	0xbd0ab5ac	-0.033864662
99	0x3d1d42de	0.038393848
100	0x3d0b8de0	0.03407085
101	0x3d0a0fd5	0.033706505
102	0xbc9193c7	-0.017770661
103	0xbd1f83d3	-0.038944077
104	0x3d58b18f	0.052903708
105	0x3ca8ce94	0.020606317
106	0xbd1f1e04	-0.038846985
107	0x3cd428e2	0.0258984
108	0x3c9974da	0.018732477
109	0x3d999464	0.074990064
110	0x3cf1509f	0.029457388
111	0xbd2d02c3	-0.042238962
112	0xbcc440dc	-0.023956709
113	0x3c5279e6	0.012846446
114	0x3e0c6647	0.1371089
115	0xbd00f847	-0.031486776
116	0x3d0d2b8f	0.03446537
117	0xbae20ea5	-0.0017246796
118	0xbcafd216	-0.021462481
119	0x3dc1eb19	0.094686694
120	0xbb930654	-0.0044868384
121	0x3c8fba04	0.017544754
122	0xbd5b9ae8	-0.053614527
123	0x3c80e76d	0.015735352
124	0x3ae6c4d8	0.0017606271
125	0x3ce55f44	0.027999528
126	0xbcda754b	-0.026667258
127	0x3cc99fe0	0.024612367
128	0x3d9eb616	0.07749574
129	0x3cc7f3be	0.024408218
130	0x3d58de19	0.052946184
131	0x3cbae03a	0.022811998
132	0x3e076073	0.13220386
133	0x3d9c9365	0.07645301
134	0xbd4cf27f	-0.05003595
135	0xbcb8b89c	-0.022548966
136	0x3d587dc0	0.0528543
137	0x3e2b1932	0.1670883
138	0x3d4382fd	0.047732342
139	0xbdb5449b	-0.08850976
140	0x3c42f181	0.011898399
141	0x3dcb8e35	0.09939233
142	0x3c87a6a1	0.016558947
143	0xbde35ab3	-0.11101284
144	0xbdd7da6f	-0.1053971
145	0x3d93c026	0.07214384
146	0xbba965d8	-0.0051696114
147	0xbd4aa29d	-0.049471486
148	0xbe075af0	-0.13218284
149	0xbd89447f	-0.06702518
150	0xbd1514d7	-0.036396828
151	0xbd756b13	-0.059916567
152	0xbd581779	-0.05275676
153	0x3dcb8a68	0.09938508
154	0x3c93614d	0.017990733
155	0xbcb1ada3	-0.021689242
156	0xbbf6f151	-0.0075360914
157	0x3cd0c2d9	0.025483536
158	0x3d8d1a4d	0.06889782
159	0x3d3c021c	0.04590045
160	0xbd2c1cb0	-0.042019546
161	0x3ceca5bd	0.028887624
162	0x3df1cb31	0.11806334
163	0x3d966ff4	0.07345572
164	0x3bcb472f	0.006203554
165	0x3b7ea176	0.0038853562
166	0x3d5042de	0.05084502
167	0x3d8fe3ba	0.07025857
168	0xbd156249	-0.036470685
169	0xbc09809c	-0.008392479
170	0x3d6b10cd	0.05738907
171	0x3d8b5d3c	0.068048924
172	0xbc779850	-0.015111998
173	0x3c8e45f6	0.017367344
174	0xbd87950a	-0.06620224
175	0xbc3fa862	-0.01169786
176	0xbd203228	-0.039110333
177	0x3c9a0359	0.018800424
178	0x3c948358	0.018129036
179	0x3c947aec	0.01812502
180	0x3ccfc0ff	0.025360582
181	0xbb4e0953	-0.0031438663
182	0xbd5b8d79	-0.053601716
183	0xbaef1835	-0.0018241467
184	0xbd848ff4	-0.064727694
185	0x3b698847	0.0035634206
186	0xbd89dd2b	-0.067316376
187	0xbd7dbe56	-0.061949097
188	0xbd88dd60	-0.06682849
189	0xbd0fb6c3	-0.035086405
190	0x3c8058c7	0.015667332
191	0xbcd61270	-0.026131839
192	0xbbe12e26	-0.0068719564
193	0xbc9db3e2	-0.019250814
194	0x3c7dde1a	0.015494848
195	0x3c81d3bf	0.015848039
196	0xbcb852eb	-0.022500476
197	0xbbb59c15	-0.005542288
198	0xbd4e29c5	-0.050332803
199	0xbd5a34e5	-0.0532731
200	0x3cffe049	0.031234877
201	0x3d4c3269	0.049852762
202	0x3d619f5e	0.055083625
203	0xbd02712d	-0.031846214
204	0xbd2db477	-0.042408433
205	0xba0d0aee	-0.0005380352
206	0x3d1a2930	0.037636936
207	0xbd280498	-0.041020006
208	0xbd44a24e	-0.04800635
209	0xbcdc9e7c	-0.02693104
210	0x3bef2143	0.0072976663
211	0xbd20cb3f	-0.03925633
212	0xbb45eb70	-0.0030200146
213	0xbdbca993	-0.09212031
214	0xbd0af90a	-0.03392891
215	0xbd4353bd	-0.04768728
216	0xbc9cb676	-0.019129973
217	0xbdd1561e	-0.10221504
218	0xbb649dbf	-0.0034884063
219	0x3bc7881e	0.0060892245
220	0x3d06875c	0.032843933
221	0x3c844ee6	0.016150903
222	0xbd232c46	-0.039837144
223	0xbd6da7db	-0.058021408
224	0x3bf0871a	0.007340324
225	0x3d9cd85d	0.076584555
226	0xbd17de4a	-0.037077226
227	0xbe35eb07	-0.17765437
228	0xbea6f596	-0.32609242
229	0xbd2b6561	-0.04184473
230	0xbd5ec35b	-0.054385524
231	0xbe421c2e	-0.18956062
232	0xbec36a44	-0.38167012
233	0xbe936d2a	-0.28794223
234	0x3e7536f8	0.2394675
235	0xbe1a7efe	-0.15087506
236	0xbe8b7b25	-0.2724239
237	0xbed72b46	-0.42025203
238	0x3ce354c6	0.027750384
239	0x3eb9e496	0.3630721
240	0xbe07e402	-0.13270572
241	0xbe2fab72	-0.17155245
242	0xbe0484f6	-0.12941346
243	0x3e5a75b5	0.21333964
244	0x3df77b96	0.12084119
245	0xbbea731d	-0.007154836
246	0xbd204eab	-0.039137524
247	0x3a8b8b1a	0.0010646314
248	0x3e2fb43e	0.171586
249	0xbdb1b021	-0.08676172
250	0x3d027482	0.03184939
251	0x3cbfac57	0.023397608
252	0xbe13a934	-0.14420015
253	0xbe99e287	-0.3005564
254	0xbdb291c1	-0.087192066
255	0xbcdf5d26	-0.027266096

bias f4 [16]
0	0xbd3eb955	-0.046563465
1	0x3d3c41aa	0.04596106
2	0x3c9a3609	0.018824594
3	0x3e8380e6	0.2568428
4	0x3d093f81	0.033507828
5	0xbcbb58f7	-0.02286957
6	0xbcb98a10	-0.022648841
7	0xbd98cbe6	-0.074607655
8	0xbd267b5f	-0.040645
9	0xbd5019a2	-0.050805695
10	0x3e4c4918	0.19949758
11	0xbd8ee1f4	-0.06976691
12	0xbc900150	-0.01757875
13	0xbca0f067	-0.019645883
14	0xbc8708d0	-0.016483694
15	0x3e1e3a05	0.1545182

weight f4 [84, 784]
0	0x3b83604a	0.0040092813
1	0x3be83708	0.0070866384
2	0xbd430695	-0.0476137
3	0xbdaf0410	-0.08545697
4	0x3d328693	0.04358537
5	0xbc8a95fd	-0.016917223
6	0x3cc469fe	0.023976322
7	0x3d8942d7	0.06702202
8	0xbd5e5632	-0.05428142
9	0xbd90ebaf	-0.07076203
10	0x3b57840b	0.00328851
11	0x3c10cf8a	0.008838544
12	0x3d14ee98	0.036360353
13	0x3c4e6eb1	0.012599633
14	0x3d052d9f	0.03251421
15	0xbd2f5de4	-0.04281415
16	0xbd5314b0	-0.0515334
17	0xbd491891	-0.049095694
18	0x3d340bd1	0.04395658
19	0xbc8d9bb0	-0.017286152
20	0x3a0d1ab7	0.0005382704
21	0x3dad9cc4	0.08477166
22	0xbce63a55	-0.028103987
23	0x3c22041d	0.009888676
24	0x3d478ddf	0.048719283
25	0x3d0e57ee	0.034751825
26	0xbd11741f	-0.035511132
27	0xbc58a97e	-0.013224004
28	0x3cb9590a	0.022625465
29	0xbb8d7823	-0.0043173
30	0x3d0a4829	0.033760224
31	0xbd0e0b7b	-0.034678917
32	0x3d6a1bbd	0.05715536
33	0xbc59c930	-0.013292596
34	0xbcf9db17	-0.030499978
35	0xbd7154be	-0.058918707
36	0x3cc11cdc	0.023573332
37	0xbcb48adb	-0.022038868
38	0xbbe1aa2a	-0.00688674
39	0x3cd7fbc7	0.026365174
40	0xbd55aef4	-0.0521688
41	0xbc7d8808	-0.015474327
42	0xbcf56efe	-0.029960152
43	0xbd20e7ed	-0.03928368
44	0xbb461e28	-0.0030230377
45	0xb90050a6	-0.00012237075
46	0x3cb3f7f5	0.021968821
47	0x3c58fd4a	0.013243983
48	0xbc739c67	-0.014868832
49	0xbd22ad42	-0.039716013
50	0x3c384016	0.011245748
51	0x3ced023c	0.02893173
52	0x3c92e4e1	0.017931404
53	0x3ab63b37	0.0013903145
54	0xbd37c9f0	-0.044870317
55	0xbd2456cf	-0.04012185
56	0x3ca0f148	0.019646302
57	0x3c17b4c4	0.0092594065
58	0x3cf742e8	0.03018327
59	0xbc3220b6	-0.010872057
60	0xbbcfae96	-0.006337951
61	0xbb7e3236	-0.0038787252
62	0xbc1f1f89	-0.009712108
63	0x3bf3ec7d	0.007443963
64	0x3cd2ffe6	0.025756788
65	0x3c6e3810	0.0145397335
66	0x3d264cdf	0.040600654
67	0xbccb96a4	-0.024852104
68	0x3c2a94ea	0.01041148
69	0x3d044470	0.03229183
70	0xbd2db256	-0.042406403
71	0x3c99270d	0.018695379
72	0xbc50b163	-0.012737605
73	0x3d1f0dda	0.03883157
74	0x3d0babf1	0.034099523
75	0xbc39ea86	-0.011347419
76	0xbd299330	-0.041400135
77	0xbd16a917	-0.03678235
78	0x39e279a5	0.0004319671
79	0x3ce5f1f9	0.028069483
80	0x3c01a707	0.007913358
81	0x3cc4bd8f	0.02401617
82	0x3c02ee03	0.007991317
83	0x3a033045	0.0005004446
84	0xbca460e4	-0.020065732
85	0xbbfaccc0	-0.0076538026
86	0xbce60f45	-0.028083453
87	0x3c3921fb	0.0112996055
88	0xbba0ab40	-0.004903227
89	0xbc8f528e	-0.01749542
90	0x3d255d67	0.04037228
91	0x3c9b87fe	0.018985745
92	0xbc8dd843	-0.017315036
93	0xbcdada5c	-0.02671545
94	0xbcc44b83	-0.023961788
95	0x3be15df9	0.0068776575
96	0xbd08ff69	-0.033446703
97	0x3a38b489	0.0007045945
98	0x3c22ed9d	0.009944347
99	0x3cf2ad7f	0.029623745
100	0x3cafd51a	0.02146392
101	0x3d006ca3	0.031353604
102	0x3a3cdeca	0.0007204829
103	0x3c8f050d	0.017458463
104	0x3c7442c1	0.0149084935
105	0xbcdfc2eb	-0.027314624
106	0xbb8d864d	-0.0043189884
107	0x3cebbb50	0.028775841
108	0x3cc5ab5b	0.02412956
109	0x3d6e54d2	0.05818636
110	0x3d5d5be8	0.054042727
111	0xbd3f0cae	-0.04664295
112	0xbd1bb0fd	-0.038010586
113	0xbd21566d	-0.039389063
114	0xbc85fc49	-0.01635565
115	0x3d15ed8f	0.036603507
116	0x3da95c03	0.08269503
117	0xbb0486a2	-0.002022185
118	0xbb9044a6	-0.004402715
119	0xbcfebd44	-0.031096108
120	0xbc6aeb60	-0.014338344
121	0x3d32e92d	0.043679405
122	0x3c83ab94	0.016073026
123	0xbdd60be8	-0.1045149
124	0xbceeb1d1	-0.029137524
125	0x3d0376fa	0.032095887
126	0x3b1a0da5	0.0023506668
127	0xbac8f042	-0.0015330391
128	0x3d2c9eba	0.04214356
129	0x3d040f37	0.032241073
130	0xbdec2ecd	-0.11532364
131	0xbd3f1746	-0.046653055
132	0xbcc27186	-0.023735773
133	0xbcead431	-0.028665634
134	0x3c9e63ec	0.019334756
135	0x3dacb776	0.0843343
136	0x3cedbc89	0.029020565
137	0xbd562482	-0.05228091
138	0xbd965b50	-0.07341635
139	0xbcbd96f3	-0.023143267
140	0x3d91c4ea	0.071176365
141	0xbd1ffc89	-0.039059196
142	0x3dc1d200	0.094638824
143	0x3d4a1909	0.04934028
144	0xbd0fa272	-0.03506703
145	0x3c71c597	0.014756582
146	0xbb43dd82	-0.0029886668
147	0xbd226694	-0.039648607
148	0xbd8772b2	-0.06613673
149	0xbcc317fc	-0.023815148
150	0x3cd8b059	0.026451277
151	0xbccb4a12	-0.024815593
152	0xbd787274	-0.060656026
153	0xbd86ad50	-0.065760255
154	0xbd229581	-0.03969336
155	0xbd96d15a	-0.073641494
156	0x3b1890ee	0.0023279744
157	0xbc8d9a6c	-0.017285548
158	0xba93ecd1	-0.0011285787
159	0xbd0d2919	-0.034463022
160	0x3a268408	0.00063520717
161	0xbd8036c1	-0.062604435
162	0xbc924565	-0.017855356
163	0x3d989075	0.07449428
164	0x3d3e328c	0.046434924
165	0xbd3adc28	-0.045620114
166	0xbcb6fb0e	-0.02233651
167	0x3da46506	0.08027081
168	0xbd9fd118	-0.07803553
169	0xbcbe9a6b	-0.023266992
170	0x3dbf870c	0.0935193
171	0x3cad75c8	0.021174327
172	0xbd12b7f6	-0.03581997
173	0x3ce4ca2c	0.027928434
174	0x3d12effa	0.03587339
175	0xbd5e71e5	-0.054307837
176	0x3d8757bc	0.06608531
177	0x3c6f6923	0.014612469
178	0xba3b0aef	-0.0007135113
179	0xbd72890e	-0.059212737
180	0x3d5c8920	0.05384171
181	0x3d5d32ee	0.05400365
182	0xbb0e32e0	-0.0021697804
183	0x3b0dbb02	0.0021626358
184	0xbdd15f0d	-0.102232076
185	0xbca93fda	-0.02066033
186	0x3b96c8d4	0.0046015773
187	0x3bd46851	0.006482162
188	0xbd00898b	-0.03138117
189	0xbcf026b0	-0.029315323
190	0xbc400181	-0.011719109
191	0xbcc53796	-0.024074357
192	0x3d074aa1	0.033030156
193	0xbcd221ef	-0.025650946
194	0xbd6d6613	-0.057958674
195	0xbdae43c0	-0.08509016
196	0x3d18bcb8	0.03728935
197	0x3d86f55b	0.065897666
198	0xbcab9b09	-0.02094795
199	0xbd1351c7	-0.03596666
200	0xbcf241f9	-0.029572474
201	0x3b97249c	0.0046125185
202	0xbc44486c	-0.011980157
203	0x3d2e5b55	0.04256757
204	0x3dc66f7d	0.096892335
205	0xbd8f7340	-0.07004404
206	0xbca9153e	-0.020640012
207	0x3d78a1d4	0.060701206
208	0x3d491598	0.04909286
209	0xbbcb2e5e	-0.0062005958
210	0x3d47cdb3	0.048780154
211	0x3d2edada	0.042689182
212	0xbc750ddb	-0.014956917
213	0xbc9479a7	-0.018124415
214	0x3da5721e	0.08078407
215	0x3d963ae0	0.07335448
216	0xbd020b82	-0.031749256
217	0x3db047ab	0.086074196
218	0xbc73bc0b	-0.014876376
219	0xbd55e6af	-0.05222195
220	0x3b88aa92	0.004170724
221	0x3ceb7f10	0.028747112
222	0xbc1710a9	-0.009220281
223	0xbc0c18ec	-0.008550864
224	0x3db82e0c	0.08993158
225	0xbd827716	-0.0637037
226	0x3cfb6074	0.03068564
227	0xbd1988c1	-0.037483934
228	0xb9ab5e9e	-0.00032686157
229	0x3c93d1b4	0.01804433
230	0xbc56d61a	-0.013112569
231	0x3c09dc29	0.008414307
232	0x3c9dedb9	0.019278394
233	0x3d140341	0.036135916
234	0x3c8360a9	0.016037302
235	0x3d51bf49	0.051207814
236	0xbbe80304	-0.0070804376
237	0xbd1f38bb	-0.03887246
238	0x3d10236f	0.035190042
239	0xbc8e6d3a	-0.017386068
240	0xbb7eba00	-0.003886819
241	0x3c0d5c33	0.008627939
242	0x3ca736c8	0.020411864
243	0x3cde4508	0.027132526
244	0xbce3351f	-0.027735291
245	0xbb9f60a0	-0.0048638135
246	0x3a2135bf	0.00061496714
247	0x3c97f477	0.018549187
248	0x3d035d1a	0.03207121
249	0x3c382369	0.011238911
250	0xb930aa6d	-0.00016848157
251	0x3c4d72bd	0.012539563
252	0xbd66b9c2	-0.056329496
253	0xbcda819a	-0.026673127
254	0xbc896c56	-0.016775291
255	0x3c81ef0e	0.01586106

bias f4 [84]
0	0xbd6475e0	-0.055776477
1	0x3d96f97b	0.073718034
2	0x3d47a2e8	0.048739344
3	0xbd4fcf2a	-0.050734676
4	0x3df7f952	0.12108101
5	0x3cd6792b	0.026180824
6	0xbcf66dd1	-0.030081661
7	0xbc4cb6b2	-0.01249473
8	0x3d7c00e6	0.061524294
9	0x3c2f5e19	0.010703587
10	0x3d719a1d	0.058984865
11	0xbbff22ec	-0.0077861454
12	0x3d5bf4c6	0.05370023
13	0xbd2964f0	-0.041356027
14	0xbb5f6c12	-0.0034091515
15	0x3d65ae5b	0.05607448
16	0xbc26c8d0	-0.010179713
17	0x3c5299ff	0.012854098
18	0x3e3098ee	0.17245838
19	0xbc46c80f	-0.012132659
20	0x3c090d2e	0.008364959
21	0x3cb13e21	0.02163607
22	0xbd892177	-0.06695836
23	0xbcdddf96	-0.027084153
24	0xbd3f59f7	-0.046716657
25	0x3e47bdcb	0.19505994
26	0x3d524519	0.051335428
27	0xbd1f020c	-0.03882031
28	0xbbcbc520	-0.0062185675
29	0x3cfe9fbe	0.03108203
30	0xb9138db2	-0.00014071798
31	0x3d42081e	0.047371022
32	0x3ce95df0	0.028487176
33	0x3d0ebba1	0.034846906
34	0x37e5e1f3	2.7404143e-05
35	0xbd7dc36b	-0.061953943
36	0xbcd98cb4	-0.02655635
37	0xbdb8e1fa	-0.090274766
38	0xbd39ecc4	-0.045391813
39	0x3dea5a93	0.11443057
40	0xbdc799bd	-0.0974612
41	0x3d40a7ca	0.047035016
42	0x3d1d767d	0.038443077
43	0xbc8d22bf	-0.017228482
44	0xbc8f0d9c	-0.017462544
45	0xbbb31f6b	-0.005466392
46	0xbd3e5162	-0.04646433
47	0xbd39f53e	-0.045399897
48	0xb998bb51	-0.0002913126
49	0xbc4510cb	-0.01202793
50	0x3d2ddc4b	0.042446416
51	0xbcd8eb52	-0.026479397
52	0xbc9c6fff	-0.019096373
53	0xbca6c67c	-0.020358317
54	0x3d0fa37e	0.035068028
55	0xbd5fb8f6	-0.054619752
56	0xbdb98b43	-0.09059765
57	0x3d838c65	0.064232625
58	0xbc0bfb06	-0.008543735
59	0xbbb5d8f6	-0.0055495454
60	0x3c2072be	0.009792982
61	0x3ad90de7	0.0016559929
62	0x3c0c11df	0.008549183
63	0x3885847a	6.36661e-05
64	0x3d37bdeb	0.044858854
65	0xbcbc83af	-0.02301201
66	0x3c8256ea	0.015910584
67	0x3c18f2f0	0.009335265
68	0x3d22e4d3	0.039769005
69	0xbd483ae7	-0.0488843
70	0xbd22e891	-0.039772574
71	0x3ce2c072	0.027679656
72	0xbada3985	-0.0016649222
73	0x3cd4b656	0.02596585
74	0xbc1af7d6	-0.009458503
75	0x3c2d4cbe	0.010577379
76	0x3b748a73	0.0037313967
77	0xbd558ec0	-0.05213809
78	0xbc58d279	-0.013233774
79	0xbc6d8fd9	-0.014499628
80	0xbc8c24fc	-0.01710748
81	0x3dccb9c6	0.09996371
82	0x3cbd75f6	0.023127537
83	0x3d8479fb	0.064685784

weight f4 [10, 84]
0	0x3eb75ddf	0.35813805
1	0xbe5ec58e	-0.21755049
2	0x3f055484	0.52082086
3	0x3f48873b	0.78331345
4	0xbdaca917	-0.08430689
5	0xbedef43a	-0.43545705
6	0xbdd81225	-0.10550336
7	0x3da7cc89	0.08193309
8	0x3e223e09	0.15843977
9	0xbd870c9f	-0.06594204
10	0x3e82207f	0.25415418
11	0xbd8600bc	-0.06543109
12	0xbe3f901a	-0.18707314
13	0xbd2abecb	-0.04168586
14	0xbc9d4133	-0.019196128
15	0xbc42ef73	-0.011897909
16	0x3e810dd7	0.2520587
17	0x3ebf5d08	0.37375665
18	0xbdc87134	-0.09787217
19	0xbd36bf71	-0.044616167
20	0x3e6e1f97	0.23254238
21	0x3e67816e	0.22607967
22	0xbd69a2b0	-0.057039917
23	0xbca4b334	-0.020104982
24	0x3d8fcadd	0.07021115
25	0xbef809ce	-0.4844498
26	0x3f12b253	0.5730335
27	0xbe21ea44	-0.15812021
28	0x3e319f1d	0.17345853
29	0xbd64c1de	-0.05584895
30	0xbea043cd	-0.31301728
31	0xbe9dd754	-0.30828345
32	0x3efc8a85	0.49324432
33	0xbe4defc5	-0.20110996
34	0xbcabc200	-0.02096653
35	0x3e6b8576	0.2300013
36	0xbe5ef7c4	-0.21774203
37	0xbca02207	-0.019547476
38	0x3e06f407	0.13179027
39	0x3e914ff3	0.2838131
40	0xbec4f784	-0.3847009
41	0xbe65adfd	-0.22429653
42	0xbeaa8ba1	-0.33309653
43	0x3ca3e0a6	0.020004582
44	0x3d6983b4	0.057010368
45	0x3e04323b	0.12909786
46	0xbea9e1f5	-0.33180204
47	0x3e01cdfc	0.12676233
48	0x3d61d027	0.05513015
49	0x3e970e70	0.29503202
50	0x3d7e8ca9	0.062145863
51	0xbe761788	-0.24032414
52	0x3d0f3e91	0.034971777
53	0xbe8ad972	-0.27119023
54	0xbe3dc8be	-0.18533608
55	0x3e5497f1	0.20761086
56	0xbcb47279	-0.022027241
57	0xbe872eb3	-0.26402816
58	0x3d9ca382	0.07648374
59	0xbe815d36	-0.25266427
60	0x3eb7f45f	0.35928628
61	0xbddde110	-0.10833943
62	0xbe1507e3	-0.1455379
63	0xbe2fd82e	-0.1717231
64	0xbebfadda	-0.37437326
65	0x3ecb1ea7	0.39671823
66	0x3f0c7bb6	0.5487627
67	0x3ec9708b	0.39343676
68	0xbea5c0c2	-0.32373625
69	0xbd869558	-0.06571454
70	0xbe8afc98	-0.2714584
71	0xbec80c36	-0.39071816
72	0xbe9dd852	-0.30829102
73	0xbe33e18b	-0.17566507
74	0xbe4eff5b	-0.20214598
75	0xbdd1b8fc	-0.10240361
76	0xbdb1b2eb	-0.08676704
77	0xbe046bdc	-0.1293177
78	0xbf0d71d2	-0.552518
79	0xbd60a677	-0.054846253
80	0xbe1a2367	-0.15052567
81	0x3ed4b9bc	0.41547954
82	0x3e8e201a	0.27758867
83	0x3e38f98c	0.18063945
84	0xbe4eba77	-0.20188318
85	0x3f25bf32	0.64744866
86	0xbcd53bfc	-0.02602958
87	0x3b94a7c8	0.0045366026
88	0xbdf48c8f	-0.11940872
89	0xbdb8fc0e	-0.090324506
90	0x3e5d572b	0.21615283
91	0x3f813edb	1.0097307
92	0x3e913b0e	0.28365368
93	0x3e11352b	0.14180438
94	0xbea94d97	-0.3306701
95	0xbd58c3c9	-0.05292109
96	0xbe4bb1bf	-0.19892024
97	0x3deabb87	0.11461549
98	0xbe47d373	-0.19514255
99	0xbeed5d71	-0.46360353
100	0xbd6ea108	-0.05825904
101	0xbea1cd35	-0.31601873
102	0x3da39cbc	0.07988879
103	0x3e192587	0.14955722
104	0x3eaac49c	0.33353126
105	0xbdaf94a6	-0.08573274
106	0xbd09ec0b	-0.033672374
107	0xbefc9f43	-0.49340257
108	0xbd7de4f7	-0.061985936
109	0x3e7dbb33	0.24778442
110	0xbeb8f0a1	-0.36121085
111	0xbe58805d	-0.21142717
112	0x3e81c768	0.25347447
113	0xbd7e8725	-0.062140603
114	0xbf023600	-0.5086365
115	0x3c8eab22	0.017415587
116	0xbe97b0d4	-0.29627097
117	0xbc511d75	-0.012763371
118	0xbca934ef	-0.020655124
119	0xbe3d4af7	-0.18485628
120	0x3da02a2f	0.07820546
121	0xbea4c516	-0.32181615
122	0x3cf57fb4	0.02996812
123	0xbee9c872	-0.4566074
124	0xbeeeb7e6	-0.46624678
125	0xbd9fe605	-0.078075446
126	0x3e48b599	0.19600524
127	0x3cf4bb47	0.029874457
128	0xbe0540c8	-0.13012993
129	0x3ccb8306	0.02484275
130	0xbeedf7fd	-0.46478263
131	0xbedd703e	-0.43249696
132	0xbd69aa70	-0.057047307
133	0xbea950e2	-0.3306952
134	0x3e46bc22	0.19407704
135	0x3dbe7dd8	0.093013465
136	0x3cf7896b	0.030216893
137	0xbe0cd783	-0.13754086
138	0xbda9a887	-0.08284097
139	0xbde0c3f2	-0.109748736
140	0xbe39d161	-0.18146278
141	0x3f04f7b2	0.51940453
142	0xbdf1a822	-0.11799647
143	0xbe900795	-0.28130785
144	0xbd82481b	-0.06361409
145	0xbb16b1f2	-0.0022994247
146	0x3f63fc66	0.89057004
147	0x3ed0a3a6	0.40749854
148	0x3f1d00ce	0.6132935
149	0x3e17230f	0.14759468
150	0xbe378c82	-0.17924693
151	0xbc9198dc	-0.017773084
152	0x3e94c4d2	0.29056412
153	0x3ea18b87	0.31551763
154	0xbe14fcd1	-0.14549567
155	0xbe454b26	-0.19266948
156	0xbe284f0d	-0.16436405
157	0xbe1003a0	-0.14063883
158	0xbe4c637d	-0.19959827
159	0xbe92441b	-0.28567585
160	0x3e042318	0.12904012
161	0xbee4f4f2	-0.44718128
162	0xbe7173ac	-0.23579282
163	0xbe456e70	-0.1928041
164	0x3e30ecc3	0.17277817
165	0xbe720a8b	-0.23636834
166	0x3ec6ebe6	0.3885185
167	0xbe61ec10	-0.22062707
168	0xbea40bf3	-0.32040367
169	0xbe88a36b	-0.26687178
170	0xbddb4493	-0.10706439
171	0xbec966eb	-0.39336333
172	0xbd973dec	-0.073848575
173	0xbe67ddc4	-0.2264319
174	0x3ede3a43	0.43403825
175	0x3e81b835	0.2533585
176	0xbf104b5d	-0.56364995
177	0xbd0d4123	-0.034485947
178	0xbc7f3b45	-0.015578096
179	0x3e5a7f0d	0.21337529
180	0x3ed4f17f	0.41590497
181	0xbd996163	-0.07489278
182	0xbd43e41d	-0.047824968
183	0x3d774e2c	0.060377285
184	0xbeed25d6	-0.4631793
185	0xbe9e6c46	-0.3094198
186	0xbe8fa712	-0.28057152
187	0x3e6539aa	0.22385278
188	0x3db5b3be	0.08872174
189	0xbd4ebf67	-0.050475504
190	0x3ea80c19	0.3282173
191	0xbd922cc4	-0.071374446
192	0x3efe94b0	0.49722815
193	0x3f2311c7	0.63699
194	0x3d830009	0.06396491
195	0x3e6d72d4	0.23188335
196	0xbf2b8dc9	-0.6701322
197	0x3dd5b396	0.10434644
198	0x3d8f4998	0.06996459
199	0xbdd701f0	-0.104984164
200	0xbe7575bc	-0.23970693
201	0x3f0ac472	0.54206
202	0xbd142d90	-0.036176264
203	0xbd8ceea8	-0.068814576
204	0xbcbdc954	-0.02316729
205	0x3e27c12d	0.16382284
206	0xbdd63b24	-0.10460499
207	0x3e47f8ae	0.19528458
208	0xbe8c0d82	-0.27354056
209	0xbeb37c9e	-0.35056013
210	0x3eb0ff49	0.34569767
211	0x3ded83a3	0.11597373
212	0x3f1db79c	0.6160829
213	0x3cf99cee	0.030470338
214	0x3ef252ec	0.4732889
215	0x3e9992bd	0.29994765
216	0x3e064782	0.13113216
217	0xbea652da	-0.32485086
218	0xbeac4450	-0.33645868
219	0xbd8adc26	-0.06780271
220	0xbdc326e0	-0.09528899
221	0x3f13d3de	0.5774516
222	0x3e0bdcc4	0.13658434
223	0xbe4e9513	-0.20174055
224	0xbe469908	-0.19394314
225	0x3dad5a77	0.084645204
226	0xbec09450	-0.37613153
227	0xbe3014d6	-0.17195448
228	0x3d9e5697	0.077313595
229	0xbe2589f7	-0.1616591
230	0x3b9b0920	0.0047313124
231	0xbf1fa789	-0.62365013
232	0xbccbab9b	-0.024862101
233	0x3d668701	0.056281094
234	0xbeef44f2	-0.4673229
235	0xbe34aa3a	-0.17643061
236	0x3d273980	0.04082632
237	0xbdbffcf5	-0.093744196
238	0xbca76b72	-0.020436976
239	0x3e8a6546	0.2703039
240	0x3eb63fdd	0.355956
241	0x3d9f6ce2	0.077844396
242	0x3f127180	0.5720444
243	0xbe861294	-0.2618605
244	0x3eef033f	0.46682164
245	0xbea704da	-0.3262089
246	0xbddbf850	-0.10740721
247	0xbea7462e	-0.3267073
248	0xbdb14a0c	-0.086567014
249	0xbee01814	-0.4376837
250	0x3e21ad6d	0.15788813
251	0x3e5eaef3	0.21746425
252	0x3e268509	0.16261686
253	0xbe3c44ae	-0.18385574
254	0xbeae2571	-0.3401294
255	0xbe82fcc0	-0.25583458

bias f4 [10]
0	0xbe824eea	-0.25450832
1	0x3e960e9e	0.29308027
2	0x3db58236	0.088627264
3	0x3ddf2e98	0.10897559
4	0xbe89999c	-0.26875007
5	0xbee5df85	-0.44897094
6	0x3d829768	0.06376535
7	0x3d9fbdf4	0.077999026
8	0x3df75667	0.12077027
9	0x3e44e707	0.19228755
