model.pt (torch, 299387 bytes, 8 tensors)

weight f4 [16, 1, 5, 5]
0.14587308 -0.21032153 -0.13775167 -0.17299333 -0.18793085 -0.27064198 -0.11448775 0.047585595
-0.13820596 0.12867214 -0.23830761 -0.01363942 -0.27498862 0.12814057 0.004290744 -0.31552795
-0.013380631 0.07956129 -0.032848332 -0.096008316 -0.1188874 -0.06060077 0.03514654 0.0050431397
0.050173275 -0.45407978 0.05312594 -0.025066057 -0.10551815 -0.10570286 -0.06277348 0.3834202
0.11232024 0.10077637 0.068855114 0.30369863 0.68626726 0.62952614 0.053841706 -0.33754906
0.26226982 0.7150498 0.6936972 0.272781 -0.35296077 0.021593304 0.169885 0.28979912
0.20282917 -0.10019867 0.061166763 -0.0504857 -0.20204967 -0.1751575 -0.09647042 -0.1393324
-0.21988039 -0.17533484 -0.085829444 -0.09822898 -0.108628385 -0.041275963 -0.028756183 0.071225494
0.21340984 -0.2228964 0.061916225 -0.16852623 0.17948495 -0.054758903 0.05013161 -0.031053925
0.07152969 0.2835143 0.23415048 -0.0001725725 0.3372214 -0.098980665 -0.24609116 -0.35146713
0.15620448 0.14994846 0.23461448 -0.004611353 -0.36538187 0.18798672 0.399523 0.19819619
-0.05218542 -0.3362658 -0.14959833 0.29573286 0.2690289 0.15859175 -0.14190912 -0.17165756
0.09910275 0.15823485 0.21512064 -0.13230208 0.036421105 0.210684 -0.12178399 -0.016796317
0.19042127 0.24281362 0.39143565 0.3787026 -0.019045938 -0.03823398 -0.10257608 -0.007271238
0.13699014 0.1182079 -0.06423315 -0.026391903 -0.29861444 -0.060813576 0.11325799 0.010186622
-0.23832282 -0.31392062 -0.3658137 -0.14790395 -0.12082513 0.07877465 0.012369611 -0.0986214
0.05988929 -0.020575415 -0.22596122 -0.07217256 -0.15910463 -0.04455851 -0.16394003 0.016053984
-0.119966455 -0.13872907 -0.18742925 0.13929658 0.21732147 0.35990536 0.39202142 0.17566474
0.0029293215 -0.0096067535 -0.14367327 -0.03015881 0.06189443 0.050398555 0.03862699 0.030265823
0.21456926 0.083658956 0.07038447 0.28221488 0.22071074 0.35187128 0.21705818 0.39958912
0.1320008 0.1578861 0.13348739 -0.09456088 0.049806423 -0.0016214787 -0.33152774 -0.30804175
-0.37679604 -0.27466935 -0.40612784 -0.49375737 -0.3967335 -0.34323624 -0.20786926 0.19064164
0.10416133 0.24007156 0.039853524 0.29074085 0.20571093 0.09161613 0.021947706 -0.08393981
0.14969736 0.13136871 -0.12039278 -0.36319122 -0.12842944 -0.25931364 -0.24171937 -0.35930637
-0.23381627 -0.42015883 -0.36189365 -0.37533563 -0.44566476 -0.23797074 -0.36512715 -0.12393729
-0.21678911 0.055426266 -0.0122512365 0.21506305 -0.014271375 -0.32077423 0.09660054 0.3863468
0.48123485 0.15147883 -0.087558046 -0.20552792 0.4959661 0.6789983 0.16559087 -0.43076882
-0.40697977 0.18179885 0.58660424 0.20078535 -0.30933282 -0.51917326 0.25941095 0.47412744
-0.06130159 -0.21608876 -0.07365078 -0.057361975 -0.20848686 -0.61434156 -0.039043024 0.41246969
0.50124365 -0.042648263 -0.52079403 -0.12018778 0.95577747 0.80015 0.28509334 -0.20798834
0.27489838 1.0755807 1.1489432 0.5321847 -0.20891213 -0.1952736 0.4304737 0.55667394
0.3105254 -0.10740456 -0.3351695 -0.14813703 0.30113566 0.11728738 0.09032997 0.2179172
00000000: c15f 153e 875e 57be c60e 0dbe 2a25 31be
00000010: f270 40be 9691 8abe 8e78 eabd 1de9 423d
00000020: dd85 0dbe a1c2 033e e906 74be e077 5fbc
00000030: 4fcb 8cbe 4837 033e 5f99 8c3b e18c a1be
00000040: 6f3a 5bbc 08f1 a23d f98b 06bd 02a0 c4bd
00000050: 3d7b f3bd 8338 78bd d1f5 0f3d ec40 a53b
00000060: 7e82 4d3d 257d e8be 969a 593d 5557 cdbc
00000070: e619 d8bd be7a d8bd 628f 80bd a74f c43e
00000080: 2708 e63d d763 ce3d e903 8d3d 637e 9b3e
00000090: 36af 2f3f a028 213f 1f89 5c3d 3bd3 acbe
000000a0: 3b48 863e 810d 373f 2496 313f f4a9 8b3e
000000b0: 46b7 b4be 71e4 b03c 55f6 2d3e 8d60 943e
000000c0: 73b2 4f3e f634 cdbd 008a 7a3d 18ca 4ebd
000000d0: 1ce6 4ebe 7d5c 33be 4992 c5bd 27ad 0ebe
000000e0: 5328 61be fa8a 33be 59c7 afbd 472c c9bd
000000f0: 8f78 debd fc10 29bd 1692 ebbc acde 913d
00000100: 1c88 5a3e f43e 64be de9b 7d3d 2492 2cbe
00000110: e7ca 373e df4a 60bd ce56 4d3d cd64 febc
00000120: 287e 923d c928 913e 25c5 6f3e 94f4 34b9
00000130: 49a8 ac3e 60b6 cabd 52ff 7bbe 80f3 b3be
00000140: 11f4 1f3e 178c 193e c73e 703e d51a 97bb
00000150: 5513 bbbe 977f 403e 478e cc3e f1f3 4a3e
00000160: 61c0 55bd 082b acbe 4e30 19be 4c6a 973e
00000170: 28be 893e e065 223e a050 11be 00c7 2fbe
00000180: 62f6 ca3d 5108 223e 9648 5c3e 327a 07be
00000190: 4c2e 153d 8cbd 573e e269 f9bd 6e98 89bc
000001a0: cbfd 423e 22a4 783e 416a c83e 4fe5 c13e
000001b0: 3a06 9cbc 3c9b 1cbd 6813 d2bd 9143 eebb
000001c0: 2547 0c3e fc16 f23d ab8c 83bd d533 d8bc
000001d0: fee3 98be a817 79bd cef3 e73d cae5 263c
000001e0: e60a 74be 34ba a0be ef4b bbbe 2274 17be
000001f0: 2a73 f7bd 9b54 a13d e9a9 4a3c 04fa c9bd
00000200: 794e 753d c68d a8bc 6162 67be 35cf 93bd
00000210: 53ec 22be fc82 36bd e5df 27be a583 833c
00000220: f9b0 f5bd fe0e 0ebe 74ed 3fbe c3a3 0e3e
00000230: 8589 5e3e 8445 b83e 08b7 c83e 75e1 333e
00000240: dcf9 3f3b a565 1dbc 161f 13be 9c0f f7bc
00000250: 0485 7d3d b76e 4e3d 5637 1e3d 08f0 f73c
00000260: 0bb8 5b3e 6355 ab3d bc25 903d 787e 903e
00000270: ff01 623e 7928 b43e 8044 5e3e f296 cc3e
00000280: 382b 073e e5ac 213e ebb0 083e 22a9 c1bd
00000290: d201 4c3d cc87 d4ba 01be a9be a6b7 9dbe
000002a0: 69eb c0be 76a1 8cbe fdef cfbe c4cd fcbe
000002b0: a720 cbbe a9bc afbe aedb 54be 9037 433e
000002c0: 8952 d53d 52d5 753e 733d 233d fcdb 943e
000002d0: e3a5 523e 3da1 bb3d adcb b33c a3e8 abbd
000002e0: 444a 193e 8585 063e 7d90 f6bd 33f4 b9be
000002f0: 0283 03be c2c4 84be 4885 77be 01f7 b7be
00000300: 886d 6fbe 0f1f d7be 204a b9be fe2b c0be
00000310: 2c2e e4be 9aae 73be f2f1 babe d5d2 fdbd
00000320: f7fd 5dbe a706 633d 69b9 48bc 7d39 5c3e
00000330: 7cd2 69bc 853c a4be 81d6 c53d 3fcf c53e
00000340: 6a64 f63e 441d 1b3e a251 b3bd e975 52be
00000350: 45ef fd3e d5d2 2d3f a790 293e bb8d dcbe
00000360: a75f d0be 7a29 3a3e b22b 163f ad9a 4d3e
00000370: df60 9ebe 8ae8 04bf 83d1 843e d5c0 f23e
00000380: 6017 7bbd 5f46 5dbe 38d6 96bd 64f4 6abd
00000390: 947d 55be 7d45 1dbf 94eb 1fbd 3a2f d33e
000003a0: 8151 003f f2af 2ebd c252 05bf 0325 f6bd
000003b0: d5ad 743f a1d6 4c3f c1f7 913e e5fa 54be
000003c0: 7bbf 8c3e a1ac 893f 9210 933f 423d 083f
000003d0: 10ed 55be cdf5 47be 0c67 dc3e 2f82 0e3f
000003e0: 2ffd 9e3e ecf6 dbbd 569b abbe 3cb1 17be
000003f0: 742e 9a3e 5e34 f03d ebfe b83d b025 5f3e

bias f4 [16]
0.5087641 0.085199885 0.038906723 0.01088089 0.070550665 -0.0899239 0.3483268 0.7184388
0.04203988 0.04332672 0.0038097904 -0.0010957225 0.014080095 0.54810745 0.061335064 0.266127
00000000: 5d3e 023f 477d ae3d a85c 1f3d c345 323c
00000010: de7c 903d 062a b8bd e457 b23e 9beb 373f
00000020: 0232 2c3d 5c77 313d adad 793b 599e 8fba
00000030: 33b0 663c c550 0c3f 7a3a 7b3d cc41 883e

weight f4 [16, 16, 5, 5]
0.0011648161 -0.0072994833 -0.0133909155 0.04989836 0.021399494 -0.058037538 0.036019728 0.0125615755
0.08758106 0.073611155 -0.036357567 -0.020920796 0.017126378 0.035980586 -0.001151101 -0.070698
0.018498171 0.036554843 0.08464572 -0.006285027 -0.011742193 -0.06476856 0.028950656 0.01336278
0.03197188 0.033525914 -0.103259884 -0.15915044 -0.12647988 -0.008726296 0.035456516 0.09683538
-0.21155523 -0.13764073 -0.025051795 0.09562286 0.18065326 -0.14261732 -0.1931851 -0.042289104
-0.0031963421 0.23129205 -0.05878412 -0.17126556 -0.05466854 -0.09838901 0.18438354 -0.0708087
-0.15279782 -0.027410077 -0.0213748 -0.02192667 0.049665764 -0.03664161 -0.036915936 -0.02461119
0.004865759 0.03638576 -0.03707885 0.0430872 -0.043713566 -0.012028398 0.018053021 -0.009760267
0.032302532 -0.0074143605 0.016678905 0.020329993 0.021144183 0.0041905246 -0.006075968 -0.007125132
-0.052684058 0.018077025 -0.021584189 0.033239562 -0.04967433 -0.041974615 -0.0698222 -0.025030313
0.10139199 0.0243475 -0.038344413 -0.06635076 0.02591386 0.027880581 0.09187031 -0.08007493
-0.09741566 0.034067884 0.0029622635 0.1576961 -0.055121135 -0.019221034 0.022237435 0.029554565
0.14164758 0.07670499 -0.066801935 -0.04637575 -0.009403436 -0.03812205 0.015395326 0.014451237
-0.008441646 -0.020663625 -0.036786225 -0.045461856 -0.045060165 -0.017550852 0.0027738104 -0.065139666
-0.026869573 0.0040543033 -0.012638324 0.013069681 -0.09348673 -0.057709087 -0.014462791 -0.023767687
-0.021670286 0.0038974625 0.009592681 -0.022158267 0.013734494 -0.014155266 -0.014341187 0.0053759473
0.014368083 0.009701948 0.017628197 -0.0015923873 -0.037522376 -0.006658849 0.013614955 0.02473714
-0.021858154 -0.037845004 -0.007482165 -0.053111967 0.03224014 -0.029493678 -0.050817903 -0.05610087
-0.02565453 -0.015265309 -0.06422984 -0.058414534 -0.020766258 0.03920852 -0.13112772 -0.052239463
0.044785395 0.027784407 0.047144216 -0.09269785 -0.068877146 -0.07979558 0.0631446 0.0132301655
-0.13316907 -0.12397478 -0.06549527 0.015080933 0.0625454 -0.10773296 -0.1275769 -0.0975513
0.062355015 0.05516881 -0.1116871 -0.091449626 -0.026646093 0.021255806 -0.003380164 -0.028051393
0.008843584 0.008549964 0.093126975 0.07758836 -0.09169557 -0.06289336 0.00801277 0.08694458
0.05224061 -0.08358772 -0.060660735 -0.029234234 0.1100227 0.0012682823 -0.100262366 -0.14474991
-0.055689514 0.10385802 0.07523056 -0.12578052 -0.15741628 -0.0642431 0.038840897 0.08010447
0.047080908 -0.035986923 -0.09056419 -0.030249735 0.0239026 0.13893332 -0.015403198 -0.088017285
-0.06320375 0.0122444015 0.16682954 0.019591395 -0.088159464 -0.0046778824 0.091150016 0.10201822
0.15761183 -0.085492745 -0.08557869 0.099144004 0.054396898 0.19422047 -0.12180584 -0.10427182
0.10249723 0.04466251 -0.13353235 -0.22063695 -0.08807279 0.02172221 0.18109393 0.1066607
-0.27074558 -0.116034545 -0.06058292 0.107605785 0.25033703 -0.33287406 -0.24138446 -0.023154337
-0.05980697 0.27605316 -0.1663222 -0.20992391 -0.02484463 -0.073903844 0.28570968 -0.104295336
-0.21002275 -0.038234714 -0.18326524 -0.17706385 -0.14910461 -0.02991177 0.07880954 -0.09543815
00000000: beac 983a 8130 efbb 9265 5bbc 3962 4c3d
00000010: fe4d af3c c5b8 6dbd 6c89 133d 11cf 4d3c
00000020: b35d b33d 72c1 963d aceb 14bd 1762 abbc
00000030: 9e4c 8c3c 6160 133d 8ae0 96ba 1dca 90bd
00000040: 7a89 973c 88ba 153d bc5a ad3d a1f2 cdbb
00000050: 5462 40bc 61a5 84bd ed29 ed3c 90ef 5a3c
00000060: f2f4 023d 7852 093d eb79 d3bd 55f8 22be
00000070: f183 01be bdf8 0ebc da3a 113d a151 c63d
00000080: efa1 58be b1f1 0cbe 6c39 cdbc ebd5 c33d
00000090: 2bfd 383e 460a 12be 51d2 45be 5737 2dbd
000000a0: b979 51bb d3d7 6c3e 9ec7 70bd 3d60 2fbe
000000b0: 1eec 5fbd 2d80 c9bd 0acf 3c3e 2704 91bd
000000c0: 0877 1cbe 198b e0bc 341a afbc 8f9f b3bc
000000d0: 546e 4b3d 8315 16bd 2a35 17bd 689d c9bc
000000e0: f270 9f3b 3c09 153d fedf 17bd 347c 303d
000000f0: ff0c 33bd c212 45bc eee3 933c 87e9 1fbc
00000100: a94f 043d 2af4 f2bb 33a2 883c 168b a63c
00000110: 9136 ad3c ab50 893b ea18 c7bb f079 e9bb
00000120: 3dcb 57bd 4516 943c 53d1 b0bc 3526 083d
00000130: 4f77 4bbd 93ed 2bbd f1fe 8ebd 5f0c cdbc
00000140: 9ba6 cf3d 6974 c73c 080f 1dbd e8e2 87bd
00000150: 4e49 d43c d165 e43c 8026 bc3d 53fe a3bd
00000160: dd81 c7bd c48a 0b3d 8922 423b 167b 213e
00000170: b3c6 61bd 6e75 9dbc 482b b63c 6a1c f23c
00000180: 100c 113e 8117 9d3d 74cf 88bd 80f4 3dbd
00000190: df10 1abc de25 1cbd ad3c 7c3c e2c4 6c3c
000001a0: d44e 0abc c346 a9bc 27ad 16bd 3636 3abd
000001b0: 0291 38bd cec6 8fbc d1c8 353b f267 85bd
000001c0: 941d dcbc f6d9 843b f910 4fbc 3722 563c
000001d0: f875 bfbd 5d60 6cbd 58f5 6cbc 74b4 c2bc
000001e0: e285 b1bc 926c 7f3b 9f2a 1d3c 4185 b5bc
000001f0: a506 613c 7deb 67bc 4cf7 6abc b728 b03b
00000200: 1c68 6b3c ebf4 1e3c 0269 903c a7b7 d0ba
00000210: 10b1 19bd 7932 dabb 4311 5f3c 8ba5 ca3c
00000220: df0f b3bc 5d03 1bbd f32c f5bb ef8b 59bd
00000230: 3d0e 043d ba9c f1bc 6f26 50bd 07ca 65bd
00000240: 7329 d2bc 591b 7abc ef8a 83bd 1444 6fbd
00000250: 001e aabc 1d99 203d 5846 06be 0cf9 55bd
00000260: e470 373d 209c e33c 4b1a 413d 5fd8 bdbd
00000270: 760f 8dbd dd6b a3bd f551 813d 56c3 583c
00000280: 795d 08be 7de6 fdbd 6222 86bd 0516 773c
00000290: cd17 803d 19a3 dcbd 85a3 02be fac8 c7bd
000002a0: f967 7f3d b1f8 613d 35bc e4bd f149 bbbd
000002b0: e848 dabc a820 ae3c be85 5dbb 09cc e5bc
000002c0: aee4 103c 2615 0c3c 5bb9 be3d a5e6 9e3d
000002d0: e3ca bbbd 3cce 80bd fe47 033c 0010 b23d
000002e0: 40fa 553d 0a30 abbd 6477 78bd a27c efbc
000002f0: 9553 e13d 7e3c a63a 5b56 cdbd 5239 14be
00000300: b01a 64bd 83b3 d43d 7b12 9a3d 9ccc 00be
00000310: bc31 21be e391 83bd a217 1f3d d00d a43d
00000320: e9d7 403d 0667 13bd b879 b9bd 4bce f7bc
00000330: 63cf c33c 8944 0e3e b25d 7cbc 6842 b4bd
00000340: f870 81bd be9c 483c 5dd5 2a3e 227e a03c
00000350: f38c b4bd ec48 99bb dcac ba3d eeee d03d
00000360: ff64 213e d216 afbd e143 afbd 030c cb3d
00000370: 48cf 5e3d bbe1 463e 5775 f9bd 778c d5bd
00000380: 11ea d13d 09f0 363d b4bc 08be a7ee 61be
00000390: 825f b4bd c7f2 b13c b070 393e ed70 da3d
000003a0: 2a9f 8abe 85a3 edbd cc25 78bd 6c60 dc3d
000003b0: 2d2c 803e 786e aabe 7d2d 77be 2aae bdbc
000003c0: 27f8 74bd d756 8d3e 5e50 2abe 4bf6 56be
000003d0: f786 cbbc e65a 97bd 8a48 923e cb98 d5bd
000003e0: 3410 57be 019c 1cbd e2a9 3bbe 3a50 35be
000003f0: e1ae 18be 8709 f5bc e566 a13d 1475 c3bd

bias f4 [16]
0.061894387 -0.050011195 -0.08382149 -0.08088878 0.001953125 0.13766646 -0.19973506 -0.043223035
0.052561607 -0.07028755 0.033048205 0.0029622884 0.22406587 -0.063185796 -0.13916714 -0.028465629
00000000: f884 7d3d 8ad8 4cbd 9aaa abbd 04a9 a5bd
00000010: 0000 003b 70f8 0c3e 5987 4cbe a30a 31bd
00000020: d74a 573d ebf2 8fbd 8e5d 073d f422 423b
00000030: 8671 653e 8e67 81bd d581 0ebe c030 e9bc

weight f4 [84, 784]
-0.027591597 -0.027786324 -0.0010069192 -0.02158511 -0.03712069 0.008053311 0.003866327 0.019265922
0.020426469 0.021515327 0.004619301 -0.026054356 -0.030795293 -0.020877277 -0.024925333 0.034961816
-0.028722428 -0.022485107 0.023999706 0.01652919 0.010070878 -0.012262329 0.007285835 0.01536124
-0.023405783 -0.007960833 0.009877062 -0.015681857 -0.024894949 -0.011802912 0.04597828 -0.020146094
-0.014148026 -0.012104551 -0.03857854 -0.02120475 -0.020279028 -0.0077756965 -0.021754881 -0.02199296
0.0072772806 -0.027970776 0.010112427 -0.0073655085 0.02917835 -0.009590155 0.022552993 0.0016094426
0.015247466 0.018515088 -0.01657697 0.021438181 0.0069550886 0.022128005 0.0235995 -0.022105796
0.020030517 -0.012700617 -0.01280524 -0.0755546 -0.04877367 -0.011735141 0.016428543 -0.008576686
-0.032500096 -0.052125275 -0.056361094 -0.04236865 -0.028615091 -0.028635178 -0.01648956 -0.02877382
-0.05376094 -0.04634847 0.012417342 -0.06623436 -0.041736618 -0.03124107 -0.008172729 0.016139831
0.008681268 0.0030005232 -0.01782661 0.010392253 0.023376094 0.08146135 0.0083581805 -0.0036719686
-0.026665408 -0.009633222 -0.03175141 0.0473692 0.024812195 0.01804685 -0.021172957 -0.03451922
0.02548357 0.0015591353 -0.009261789 0.045017295 -0.050763395 -0.048118547 -0.006572131 -0.037227098
-0.026179181 0.02464476 0.022230782 0.0068903593 -0.042478003 0.0020352926 0.012757508 -0.043652672
0.008672966 -0.04129413 -0.011040629 0.029000424 -0.040383846 -0.05960222 0.026720444 -0.033188738
0.03283435 0.003349295 0.019353466 -0.017732326 -0.07702851 0.01723525 0.03119136 0.01780203
0.03785233 -0.03670422 -0.003479647 0.016560318 0.0018712685 -0.009348698 0.016993465 -0.012873146
-0.012694991 0.024373155 0.008440176 0.04155307 0.038296387 -0.008800514 0.028179029 0.027159497
-0.0014602864 0.00051184674 0.007970519 -0.03274273 -0.01920988 -0.008622729 -0.018667273 0.0219371
-0.00730668 0.0013309693 -0.0040240274 -0.009777252 -0.032114528 -0.015994359 -0.040195327 -0.040669624
0.0034461385 0.008112081 0.025076982 -0.001289174 -0.008361707 -0.00866818 -0.011042709 -0.03512845
0.0115568545 -0.017212445 -0.019767089 -0.0006975013 -0.012664314 0.021141948 -0.032299396 -0.0023659123
0.011641405 0.012795192 0.01132959 -0.028796254 -0.052915096 0.021689212 0.0050853877 0.044372745
0.009478403 0.031017033 0.0015253914 -0.044300135 0.009131328 0.021580834 0.023220086 0.0091505
0.0063217008 0.018425595 -0.0304564 -0.0031649885 -0.01799373 0.0005388306 -0.03895831 -0.051911373
-0.03162547 0.008834778 0.024578715 0.022553314 -0.012447001 -0.029347742 -0.06633738 -0.03686178
-0.038866106 -0.033805747 -0.0184728 0.010945153 -0.059081104 -0.00023644869 -0.056359828 -0.04429416
-0.037659034 -0.019158812 0.0020971298 -0.010660872 -0.0034195457 -0.018417105 -0.061808888 0.006347254
-0.008838963 0.01677457 -0.010328558 0.017243156 -0.05204442 -0.06438546 0.0011023409 0.0022220481
0.07010033 -0.010847334 -0.030345429 0.00838615 -0.009736174 -0.003739086 0.0345814 -0.0016295493
-0.031384 -0.014783273 0.009824854 0.01595956 0.021839544 0.016789393 -0.024991976 -0.00039406292
-0.0026763857 -0.01582744 0.031451855 -0.024675248 -0.0011960336 -0.030947324 0.017850643 0.008330537
00000000: c607 e2bc 25a0 e3bc 9afa 83ba 42d3 b0bc
00000010: dd0b 18bd 09f2 033c 3462 7d3b 91d3 9d3c
00000020: 6955 a73c e940 b03c 815d 973b f26f d5bc
00000030: 6946 fcbc d306 abbc 3630 ccbc 1f34 0f3d
00000040: 4c4b ebbc b032 b8bc 089b c43c 3968 873c
00000050: 5300 253c f0e7 48bc 04be ee3b b6ad 7b3c
00000060: 7cbd bfbc 276e 02bc 67d3 213c 3d77 80bc
00000070: 7ef0 cbbc 0061 41bc b953 3c3d 6c09 a5bc
00000080: 1fcd 67bc 2b52 46bc 8804 1ebd 95b5 adbc
00000090: 3420 a6bc 45cb febb 4b37 b2bc 942a b4bc
000000a0: 4176 ee3b f822 e5bc 98ae 253c 5d5a f1bb
000000b0: 6f07 ef3c 0720 1dbc 0ec1 b83c eff3 d23a
000000c0: 82d0 793c f4ac 973c 6dcc 87bc 209f af3c
000000d0: 83e7 e33b ca45 b53c bd53 c13c 3717 b5bc
000000e0: 0a17 a43c 4016 50bc 12cd 51bc 5fbc 9abd
000000f0: e6c6 47bd c044 40bc 2795 863c 3a85 0cbc
00000100: d21e 05bd 5081 55bd e4da 66bd c08a 2dbd
00000110: 326a eabc 5294 eabc 1d15 87bc 13b7 ebbc
00000120: 6e34 5cbd e5d7 3dbd 1b72 4b3c e1a5 87bd
00000130: 04f4 2abd 46ed ffbc e9e6 05bc ae37 843c
00000140: e13b 0e3c 6da4 443b 1c09 92bc 4544 2a3c
00000150: 397f bf3c 35d5 a63d c0f0 083c 69a5 70bb
00000160: 6a71 dabc a9d4 1dbc c40d 02bd 3506 423d
00000170: f242 cb3c fdd6 933c e972 adbc 0764 0dbd
00000180: ebc2 d03c e65b cc3a c2be 17bc 0e64 383d
00000190: 47ed 4fbd f417 45bd 085b d7bb 717b 18bd
000001a0: b975 d6bc cfe3 c93c 541d b63c 86c8 e13b
000001b0: 6afd 2dbd 8b62 053b de04 513c 25cd 32bd
000001c0: 0e19 0e3c 0924 29bd c1e3 34bc 4c92 ed3c
000001d0: 8869 25bd 7521 74bd d5e4 da3c eaf0 07bd
000001e0: 507d 063d d87f 5b3b 298b 9e3c 6243 91bc
000001f0: 20c1 9dbd f030 8d3c 0685 ff3c 90d5 913c
00000200: 0b0b 1b3d 2a57 16bd ca0a 64bb 81a9 873c
00000210: 5a45 f53a 482b 19bc e135 8b3c e3e9 52bc
00000220: a7fe 4fbc 36aa c73c aa48 0a3c 8d33 2a3d
00000230: acdc 1c3d 0830 10bc b5d7 e63c 987d de3c
00000240: 1567 bfba 742d 063a c896 023c 3e1d 06bd
00000250: 0a5e 9dbc 5946 0dbc 1cec 98bc 6fb5 b33c
00000260: e06c efbb eb73 ae3a fddb 83bb c430 20bc
00000270: 868a 03bd 9a06 83bc dba3 24bd 3195 26bd
00000280: 9cd8 613b 89e8 043c 3e6e cd3c 80f9 a8ba
00000290: 8bff 08bc fb04 0ebc 7bec 34bc d9e2 0fbd
000002a0: f658 3d3c 1d01 8dbc 97ee a1bc 85d8 36ba
000002b0: fc7d 4fbc e131 ad3c 5f4c 04bd 6c0d 1bbb
000002c0: 97bb 3e3c eda2 513c bf9f 393c 1fe6 ebbc
000002d0: 80bd 58bd 93ad b13c 53a3 a63b 32c0 353d
000002e0: 4e4b 1b3c 6f17 fe3c a4ef c73a 0f74 35bd
000002f0: 919b 153c 4aca b03c 0d38 be3c fbeb 153c
00000300: 4526 cf3b 46f1 963c b37f f9bc b26b 4fbb
00000310: 9667 93bc 4f40 0d3a c092 1fbd 05a1 54bd
00000320: b589 01bd bfbf 103c 4d59 c93c bac1 b83c
00000330: 82ee 4bbc ad6a f0bc e4db 87bd 61fc 16bd
00000340: 1132 1fbd e577 0abd 4554 97bc 4d53 333c
00000350: 07ff 71bd 36ef 77b9 90d9 66bd cb6d 35bd
00000360: 5c40 1abd f1f2 9cbc 0070 093b f0aa 2ebc
00000370: 751a 60bb 78df 96bc 512b 7dbd a0fc cf3b
00000380: 4cd1 10bc d36a 893c 1d39 29bc 8541 8d3c
00000390: 882c 55bd 86dc 83bd 6c7c 903a c89f 113b
000003a0: c390 8f3d 04b9 31bc fa96 f8bc 1066 093c
000003b0: 7984 1fbc 740b 75bb 3aa5 0d3d 9a96 d5ba
000003c0: 828c 00bd 8b35 72bc 6df8 203c a0bd 823c
000003d0: d8e8 b23c e989 893c f9bb ccbc 3b9a ceb9
000003e0: 4d66 2fbb 8ca8 81bc a9d3 003d bf23 cabc
000003f0: 3ac4 9cba 3e85 fdbc 833b 923c ce7c 083c

bias f4 [84]
0.024730124 -0.0007664707 0.016336784 0.003873205 -0.0379047 0.023944043 -0.011185649 0.052930646
0.08754267 -0.029255318 -0.08983043 0.05389608 -0.044264015 -0.03501996 -0.00073002646 -0.002808081
0.048856393 -0.036675867 0.029931184 -0.05177276 0.027514592 0.02804578 -0.017614916 0.018573254
-0.034793817 0.015457407 -0.02102213 0.03811577 -0.01778574 -0.014392198 -0.059924304 0.045309268
0.029825754 0.0057928376 0.18818353 -0.025915321 0.054390736 0.07743212 0.0276812 0.034647215
0.029611604 0.06511856 0.050758895 0.04080725 0.011129798 -0.015444545 -0.020512912 -0.028799035
0.08484336 0.02356195 -0.06441273 0.08002456 -0.007122391 0.080266796 -0.037043653 0.022244
-0.06288883 -0.0401182 0.12964608 0.0776561 -0.0049966546 -0.00980211 0.010209574 0.011483431
0.16615905 -0.014518975 -0.010073031 -0.06045945 -0.0114001185 0.02706109 0.09319875 -0.048835546
0.026708964 -0.052324392 0.07958115 -0.003117724 0.024427088 -0.120460235 -0.021418018 -0.0083879
-0.0059674364 0.004222274 -0.030248359 0.0058467514
00000000: d496 ca3c faec 48ba b8d4 853c 99d5 7d3b
00000010: f541 1bbd 4c26 c43c 0344 37bc cecd 583d
00000020: 9249 b33d d9a8 efbc 04f9 b7bd 23c2 5c3d
00000030: 2f4e 35bd 1771 0fbd 3f5f 3fba c807 38bb
00000040: a41d 483d 6f39 16bd 3e32 f53c ac0f 54bd
00000050: 4866 e13c 43c0 e53c 284d 90bc f026 983c
00000060: f683 0ebd 1041 7d3c 9a36 acbc 481f 1c3d
00000070: 66b3 91bc 41cd 6bbc 3073 75bd 3696 393d
00000080: 2455 f43c d8d1 bd3b 2fb3 403e 5e4c d4bc
00000090: d2c8 5e3d bb94 9e3d afc3 e23c 3dea 0d3d
000000a0: 0994 f23c e15c 853d 8fe8 4f3d 8125 273d
000000b0: c259 363c 1e0b 7dbc b20a a8bc f4eb ebbc
000000c0: 5bc2 ad3d fe04 c13c d2ea 83bd ebe3 a33d
000000d0: f262 e9bb eb62 a43d 16bb 17bd 0d39 b63c
000000e0: dccb 80bd fb52 24bd f1c1 043e 290a 9f3d
000000f0: faba a3bb 0799 20bc 0f46 273c 0025 3c3c
00000100: 9925 2a3e ffe0 6dbc 5b09 25bc 54a4 77bd
00000110: 90c7 3abc 38af dd3c fcde be3d c807 48bd
00000120: c2cc da3c 1a52 56bd 71fb a23d bb52 4cbb
00000130: 511b c83c dbb3 f6bd d774 afbc 676d 09bc
00000140: 7c8a c3bb 005b 8a3b 68cb f7bc 1b96 bf3b

weight f4 [10, 84]
0.036107752 -0.2651207 -0.001006782 -0.15014724 0.13353571 -0.35409844 0.08809716 -0.1591675
-0.58340573 0.06538479 -0.22781385 -0.34287855 -0.27310348 0.07513986 0.542776 0.09572602
0.3327319 -0.042398404 -0.039081823 -0.000676259 -0.3006112 -0.13379335 -0.003335703 0.39769134
-0.0425197 0.24924392 -0.15477145 -0.26862478 0.00021234494 0.09083806 0.23689663 -0.014843351
-0.05788664 0.5344884 -0.4329718 0.37109485 -0.2045813 -0.18735766 -0.18764007 -0.4944237
0.06923242 0.08498144 -0.13944042 -0.17948945 0.011930664 -0.45051315 -0.03466989 0.11971055
-0.15498824 0.06839222 0.6950264 -0.02499515 -0.031732008 0.01113904 0.013648392 -0.12514226
0.21950005 -0.54702306 -0.2797263 0.35039508 0.16260868 -0.13926956 0.041648336 -0.20126681
-0.48798683 0.5485859 0.23251085 -0.54767215 -0.17466341 0.029262763 0.43475014 0.20277387
-0.15148577 0.06934791 0.38747716 0.033642314 -0.16879036 -0.28835037 -0.2185023 -0.07667118
-0.1162755 0.036891095 -0.0133119775 0.06287946 0.06316186 -0.07241747 0.00969483 0.2569969
-0.24093914 -0.22588396 -0.09247 1.0643384 -0.023974031 -0.02902255 0.13875024 0.30226693
0.1380261 -0.08137828 0.1521286 -0.24717875 -0.40259188 -0.07681934 -0.09977366 -0.13882647
0.011425038 -0.545908 0.035522703 -0.44634742 0.10981029 -0.53009355 0.026556935 -0.0075170817
-0.041458376 -0.09470138 -0.14126535 -0.13044937 -0.09665546 -0.33295098 -0.2291832 0.085790716
-0.043114997 -0.43078238 0.74646306 -0.20346181 -0.084583 0.20537305 -0.15166797 -0.11465601
0.05162286 -0.27337518 -0.394985 -0.38809454 -0.28944838 0.071021594 -0.08816961 0.8091799
0.14047232 0.31688073 -0.063890636 -0.22838934 -0.67168117 -0.38410717 -0.24069573 0.07933368
-0.29777008 0.3344633 0.048517272 -0.06176081 0.59848833 0.035704825 -0.060844388 -0.32747456
-0.3364944 0.122303456 -0.17442599 -0.08102078 0.23548202 0.56510204 0.30105245 0.14308569
-0.075810224 0.52618825 -0.04162055 0.23674 -0.052387748 -0.21679437 -0.017186398 0.07882318
-0.068915024 -0.5370127 0.06890086 0.99953574 -0.16634278 -0.28623748 -0.5486612 0.49041003
0.38709733 -0.011972055 0.28030545 0.09060217 -0.08232187 0.048225638 0.10010694 0.029751165
0.603139 0.01982439 0.0072254846 -0.032040298 0.60239047 0.030472394 -0.30165216 0.40430278
-0.0027067296 0.07029757 -0.062722296 0.10940074 -0.17923363 -0.08600973 -0.14426282 0.20029612
0.070451796 -0.31672966 0.10057566 0.023691371 0.09837775 -0.4565474 -0.64391935 -0.34948322
-0.10585741 0.40052345 -0.24216262 0.030347753 -0.0067837844 0.6907676 0.9815317 0.03608884
0.09615426 0.019434089 -0.24185619 -0.1658637 0.15132602 -0.41328153 -0.07299272 0.053449824
0.33271632 0.19638734 0.18549816 -0.5917541 -0.09805936 0.18200885 0.018881857 -0.085078254
0.18725395 -0.355808 -0.656482 0.42522255 0.06196818 -0.64515096 -0.32694027 -0.12816617
-0.045098606 -0.5691178 0.25518245 0.055571582 -0.03905273 0.22138108 0.059490323 0.54440415
-0.024178727 0.038864832 0.2449127 0.107104175 -0.17256214 0.2942172 0.096701145 -0.23270537
00000000: b9e5 133d e6bd 87be 00f6 83ba 33c0 19be
00000010: 96bd 083e 644c b5be 496c b43d cefc 22be
00000020: 145a 15bf 76e8 853d 0948 69be c78d afbe
00000030: 38d4 8bbe ede2 993d 5ef3 0a3f 010c c43d
00000040: d65b aa3e f3a9 2dbd 4314 20bd f946 31ba
00000050: b6e9 99be 2001 09be cf9b 5abb 339e cb3e
00000060: 2329 2ebd cc39 7f3e 687c 1ebe 3089 89be
00000070: e9a8 5e39 4e09 ba3d 0895 723e 8731 73bc
00000080: 8b1a 6dbd 3bd4 083f 7bae ddbe 2500 be3e
00000090: c37d 51be b0da 3fbe b824 40be 1a25 fdbe
000000a0: bac9 8d3d c00a ae3d 78c9 0ebe 15cc 37be
000000b0: d578 433c a9a9 e6be 0402 0ebd ce2a f53d
000000c0: 3db5 1ebe 3811 8c3d 40ed 313f a1c2 ccbc
000000d0: 6cf9 01bd 8580 363c 819d 5f3c 4b25 00be
000000e0: 9fc4 603e b409 0cbf 4938 8fbe fc66 b33e
000000f0: e482 263e ae9c 0ebe 7297 2a3d e318 4ebe
00000100: 69d9 f9be 2070 0c3f 5317 6e3e 3e34 0cbf
00000110: f7da 32be 76b8 ef3c 9297 de3e f4a3 4f3e
00000120: 161f 1bbe 4706 8e3d 6863 c63e 86cc 093d
00000130: 61d7 2cbe a9a2 93be 11bf 5fbe c805 9dbd
00000140: d921 eebd 1e1b 173d 7b1a 5abc f2c6 803d
00000150: 015b 813d 9c4f 94bd 10d7 1e3c 1995 833e
00000160: c0b8 76be 204e 67be e960 bdbd 3e3c 883f
00000170: 3065 c4bc b3c0 edbc 8b14 0e3e bbc2 9a3e
00000180: b756 0d3e a8a9 a6bd 9ac7 1b3e 6d1c 7dbe
00000190: 8620 cebe 7553 9dbd 2256 ccbd 8728 0ebe
000001a0: 1530 3b3c a0c0 0bbf 4180 113d a687 e4be
000001b0: 38e4 e03d 36b4 07bf ee8d d93c da51 f6bb
000001c0: 42d0 29bd ccf2 c1bd dda7 10be 8594 05be
000001d0: 4cf3 c5bd 8d78 aabe 00af 6abe 0bb3 af3d
000001e0: 5a99 30bd 828f dcbe 3418 3f3f 4b58 50be
000001f0: da39 adbd 504d 523e d94e 1bbe c5d0 eabd
00000200: 7e72 533d d5f7 8bbe 793b cabe 54b4 c6be
00000210: 9432 94be c573 913d 4592 b4bd 6a26 4f3f
00000220: fad7 0f3e 313e a23e 18d9 82bd e5de 69be
00000230: 4cf3 2bbf b2a9 c4be f178 76be b279 a23d
00000240: 5275 98be c63e ab3e 0cba 463d e7f8 7cbd
00000250: 8836 193f 393f 123d f737 79bd bfaa a7be
00000260: fe48 acbe 3c7a fa3d ba9c 32be 39ee a5bd
00000270: 3322 713e 87aa 103f 8c23 9a3e 0e85 123e
00000280: 6442 9bbd 46b4 063f 4f7a 2abd f86b 723e
00000290: 8994 56bd 58ff 5dbe 7dca 8cbc 0c6e a13d
000002a0: 5223 8dbd aa79 09bf e51b 8d3d 93e1 7f3f
000002b0: c355 2abe b88d 92be 0f75 0cbf 0617 fb3e
000002c0: 9f31 c63e 7026 44bc 3284 8f3e a18d b93d
000002d0: 5e98 a8bd 3f88 453d de04 cd3d b7b8 f33c
000002e0: 5167 1a3f c266 a23c c2c3 ec3b b03c 03bd
000002f0: 4336 1a3f 3ea1 f93c 2772 9abe c600 cf3e
00000300: 6363 31bb 2cf8 8f3d 8c74 80bd 7f0d e03d
00000310: 0589 37be df25 b0bd a2b9 13be 6d1a 4d3e
00000320: 0849 903d 642a a2be 9dfa cd3d 6814 c23c
00000330: 467a c93d 95c0 e9be e6d7 24bf 77ef b2be
00000340: c5cb d8bd 6911 cd3e 7af9 77be da9b f83c
00000350: 824a debb 25d6 303f a945 7b3f e4d1 133d
00000360: 86ec c43d 3d34 9f3c 26a9 77be 2cd8 29be
00000370: 35f5 1a3e a399 d3be 357d 95bd 34ee 5a3d
00000380: cb59 aa3e c319 493e 3bf3 3d3e 327d 17bf
00000390: 59d3 c8bd 8760 3a3e 20ae 9a3c 823d aebd
000003a0: 80bf 3f3e 772c b6be 340f 28bf c5b6 d93e
000003b0: 59d2 7d3d 9d28 25bf b764 a7be fe3d 03be
000003c0: 51b9 38bd b4b1 11bf 46a7 823e 079f 633d
000003d0: c1f5 1fbd b9b1 623e 20ac 733d 125e 0b3f
000003e0: 7712 c6bc bb30 1f3d 65ca 7a3e 6f59 db3d
000003f0: 21b4 30be a3a3 963e 400b c63d 514a 6ebe

bias f4 [10]
-0.07733557 0.40475008 -0.1325205 0.06237269 -0.10169067 -0.6784035 -0.19384888 0.15339752
0.05090867 0.2829176
00000000: 1c62 9ebd 673b cf3e 74b3 07be 817a 7f3d
00000010: 3343 d0bd daab 2dbf 5280 46be 3d14 1d3e
00000020: 9c85 503d 93da 903e
